…
INFO:mmseg:initialize UPerHead with init_cfg {'type': 'Normal', 'std': 0.01, 'override': {'name': 'conv_seg'}}
2023-02-26 17:55:23,338 - mmseg - INFO - initialize FCNHead with init_cfg {'type': 'Normal', 'std': 0.01, 'override': {'name': 'conv_seg'}}
INFO:mmseg:initialize FCNHead with init_cfg {'type': 'Normal', 'std': 0.01, 'override': {'name': 'conv_seg'}}
train.py:179: UserWarning: SyncBN is only supported with DDP. To be compatible with DP, we convert SyncBN to BN. Please use dist_train.sh which can avoid this error.
  warnings.warn(
2023-02-26 17:55:23,347 - mmseg - INFO - EncoderDecoder(
  (backbone): ViTAdapter(
    (patch_embed): PatchEmbed(
      (proj): Conv2d(3, 768, kernel_size=(16, 16), stride=(16, 16))
      (norm): Identity()
    )
    (pos_drop): Dropout(p=0.0, inplace=False)
    (blocks): Sequential(
      (0): Block(
        (norm1): LayerNorm((768,), eps=1e-06, elementwise_affine=True)
        (attn): Attention(
          (qkv): Linear(in_features=768, out_features=2304, bias=True)
          (attn_drop): Dropout(p=0.0, inplace=False)
          (proj): Linear(in_features=768, out_features=768, bias=True)
          (proj_drop): Dropout(p=0.0, inplace=False)
        )
        (drop_path): Identity()
        (norm2): LayerNorm((768,), eps=1e-06, elementwise_affine=True)
        (mlp): Mlp(
          (fc1): Linear(in_features=768, out_features=3072, bias=True)
          (act): GELU()
          (fc2): Linear(in_features=3072, out_features=768, bias=True)
          (drop): Dropout(p=0.0, inplace=False)
        )
      )
      (1): Block(
        (norm1): LayerNorm((768,), eps=1e-06, elementwise_affine=True)
        (attn): Attention(
          (qkv): Linear(in_features=768, out_features=2304, bias=True)
          (attn_drop): Dropout(p=0.0, inplace=False)
          (proj): Linear(in_features=768, out_features=768, bias=True)
          (proj_drop): Dropout(p=0.0, inplace=False)
        )
        (drop_path): DropPath()
        (norm2): LayerNorm((768,), eps=1e-06, elementwise_affine=True)
        (mlp): Mlp(
          (fc1): Linear(in_features=768, out_features=3072, bias=True)
          (act): GELU()
          (fc2): Linear(in_features=3072, out_features=768, bias=True)
          (drop): Dropout(p=0.0, inplace=False)
        )
      )
      (2): Block(
        (norm1): LayerNorm((768,), eps=1e-06, elementwise_affine=True)
        (attn): Attention(
          (qkv): Linear(in_features=768, out_features=2304, bias=True)
          (attn_drop): Dropout(p=0.0, inplace=False)
          (proj): Linear(in_features=768, out_features=768, bias=True)
          (proj_drop): Dropout(p=0.0, inplace=False)
        )
        (drop_path): DropPath()
        (norm2): LayerNorm((768,), eps=1e-06, elementwise_affine=True)
        (mlp): Mlp(
          (fc1): Linear(in_features=768, out_features=3072, bias=True)
          (act): GELU()
          (fc2): Linear(in_features=3072, out_features=768, bias=True)
          (drop): Dropout(p=0.0, inplace=False)
        )
      )
      (3): Block(
        (norm1): LayerNorm((768,), eps=1e-06, elementwise_affine=True)
        (attn): Attention(
          (qkv): Linear(in_features=768, out_features=2304, bias=True)
          (attn_drop): Dropout(p=0.0, inplace=False)
          (proj): Linear(in_features=768, out_features=768, bias=True)
          (proj_drop): Dropout(p=0.0, inplace=False)
        )
        (drop_path): DropPath()
        (norm2): LayerNorm((768,), eps=1e-06, elementwise_affine=True)
        (mlp): Mlp(
          (fc1): Linear(in_features=768, out_features=3072, bias=True)
          (act): GELU()
          (fc2): Linear(in_features=3072, out_features=768, bias=True)
          (drop): Dropout(p=0.0, inplace=False)
        )
      )
      (4): Block(
        (norm1): LayerNorm((768,), eps=1e-06, elementwise_affine=True)
        (attn): Attention(
          (qkv): Linear(in_features=768, out_features=2304, bias=True)
          (attn_drop): Dropout(p=0.0, inplace=False)
          (proj): Linear(in_features=768, out_features=768, bias=True)
          (proj_drop): Dropout(p=0.0, inplace=False)
        )
        (drop_path): DropPath()
        (norm2): LayerNorm((768,), eps=1e-06, elementwise_affine=True)
        (mlp): Mlp(
          (fc1): Linear(in_features=768, out_features=3072, bias=True)
          (act): GELU()
          (fc2): Linear(in_features=3072, out_features=768, bias=True)
          (drop): Dropout(p=0.0, inplace=False)
        )
      )
      (5): Block(
        (norm1): LayerNorm((768,), eps=1e-06, elementwise_affine=True)
        (attn): Attention(
          (qkv): Linear(in_features=768, out_features=2304, bias=True)
          (attn_drop): Dropout(p=0.0, inplace=False)
          (proj): Linear(in_features=768, out_features=768, bias=True)
          (proj_drop): Dropout(p=0.0, inplace=False)
        )
        (drop_path): DropPath()
        (norm2): LayerNorm((768,), eps=1e-06, elementwise_affine=True)
        (mlp): Mlp(
          (fc1): Linear(in_features=768, out_features=3072, bias=True)
          (act): GELU()
          (fc2): Linear(in_features=3072, out_features=768, bias=True)
          (drop): Dropout(p=0.0, inplace=False)
        )
      )
      (6): Block(
        (norm1): LayerNorm((768,), eps=1e-06, elementwise_affine=True)
        (attn): Attention(
          (qkv): Linear(in_features=768, out_features=2304, bias=True)
          (attn_drop): Dropout(p=0.0, inplace=False)
          (proj): Linear(in_features=768, out_features=768, bias=True)
          (proj_drop): Dropout(p=0.0, inplace=False)
        )
        (drop_path): DropPath()
        (norm2): LayerNorm((768,), eps=1e-06, elementwise_affine=True)
        (mlp): Mlp(
          (fc1): Linear(in_features=768, out_features=3072, bias=True)
          (act): GELU()
          (fc2): Linear(in_features=3072, out_features=768, bias=True)
          (drop): Dropout(p=0.0, inplace=False)
        )
      )
      (7): Block(
        (norm1): LayerNorm((768,), eps=1e-06, elementwise_affine=True)
        (attn): Attention(
          (qkv): Linear(in_features=768, out_features=2304, bias=True)
          (attn_drop): Dropout(p=0.0, inplace=False)
          (proj): Linear(in_features=768, out_features=768, bias=True)
          (proj_drop): Dropout(p=0.0, inplace=False)
        )
        (drop_path): DropPath()
        (norm2): LayerNorm((768,), eps=1e-06, elementwise_affine=True)
        (mlp): Mlp(
          (fc1): Linear(in_features=768, out_features=3072, bias=True)
          (act): GELU()
          (fc2): Linear(in_features=3072, out_features=768, bias=True)
          (drop): Dropout(p=0.0, inplace=False)
        )
      )
      (8): Block(
        (norm1): LayerNorm((768,), eps=1e-06, elementwise_affine=True)
        (attn): Attention(
          (qkv): Linear(in_features=768, out_features=2304, bias=True)
          (attn_drop): Dropout(p=0.0, inplace=False)
          (proj): Linear(in_features=768, out_features=768, bias=True)
          (proj_drop): Dropout(p=0.0, inplace=False)
        )
        (drop_path): DropPath()
        (norm2): LayerNorm((768,), eps=1e-06, elementwise_affine=True)
        (mlp): Mlp(
          (fc1): Linear(in_features=768, out_features=3072, bias=True)
          (act): GELU()
          (fc2): Linear(in_features=3072, out_features=768, bias=True)
          (drop): Dropout(p=0.0, inplace=False)
        )
      )
      (9): Block(
        (norm1): LayerNorm((768,), eps=1e-06, elementwise_affine=True)
        (attn): Attention(
          (qkv): Linear(in_features=768, out_features=2304, bias=True)
          (attn_drop): Dropout(p=0.0, inplace=False)
          (proj): Linear(in_features=768, out_features=768, bias=True)
          (proj_drop): Dropout(p=0.0, inplace=False)
        )
        (drop_path): DropPath()
        (norm2): LayerNorm((768,), eps=1e-06, elementwise_affine=True)
        (mlp): Mlp(
          (fc1): Linear(in_features=768, out_features=3072, bias=True)
          (act): GELU()
          (fc2): Linear(in_features=3072, out_features=768, bias=True)
          (drop): Dropout(p=0.0, inplace=False)
        )
      )
      (10): Block(
        (norm1): LayerNorm((768,), eps=1e-06, elementwise_affine=True)
        (attn): Attention(
          (qkv): Linear(in_features=768, out_features=2304, bias=True)
          (attn_drop): Dropout(p=0.0, inplace=False)
          (proj): Linear(in_features=768, out_features=768, bias=True)
          (proj_drop): Dropout(p=0.0, inplace=False)
        )
        (drop_path): DropPath()
        (norm2): LayerNorm((768,), eps=1e-06, elementwise_affine=True)
        (mlp): Mlp(
          (fc1): Linear(in_features=768, out_features=3072, bias=True)
          (act): GELU()
          (fc2): Linear(in_features=3072, out_features=768, bias=True)
          (drop): Dropout(p=0.0, inplace=False)
        )
      )
      (11): Block(
        (norm1): LayerNorm((768,), eps=1e-06, elementwise_affine=True)
        (attn): Attention(
          (qkv): Linear(in_features=768, out_features=2304, bias=True)
          (attn_drop): Dropout(p=0.0, inplace=False)
          (proj): Linear(in_features=768, out_features=768, bias=True)
          (proj_drop): Dropout(p=0.0, inplace=False)
        )
        (drop_path): DropPath()
        (norm2): LayerNorm((768,), eps=1e-06, elementwise_affine=True)
        (mlp): Mlp(
          (fc1): Linear(in_features=768, out_features=3072, bias=True)
          (act): GELU()
          (fc2): Linear(in_features=3072, out_features=768, bias=True)
          (drop): Dropout(p=0.0, inplace=False)
        )
      )
    )
    (spm): SpatialPriorModule(
      (stem): Sequential(
        (0): Conv2d(3, 64, kernel_size=(3, 3), stride=(2, 2), padding=(1, 1), bias=False)
        (1): _BatchNormXd(64, eps=1e-05, momentum=0.1, affine=True, track_running_stats=True)
        (2): ReLU(inplace=True)
        (3): Conv2d(64, 64, kernel_size=(3, 3), stride=(1, 1), padding=(1, 1), bias=False)
        (4): _BatchNormXd(64, eps=1e-05, momentum=0.1, affine=True, track_running_stats=True)
        (5): ReLU(inplace=True)
        (6): Conv2d(64, 64, kernel_size=(3, 3), stride=(1, 1), padding=(1, 1), bias=False)
        (7): _BatchNormXd(64, eps=1e-05, momentum=0.1, affine=True, track_running_stats=True)
        (8): ReLU(inplace=True)
        (9): MaxPool2d(kernel_size=3, stride=2, padding=1, dilation=1, ceil_mode=False)
      )
      (conv2): Sequential(
        (0): Conv2d(64, 128, kernel_size=(3, 3), stride=(2, 2), padding=(1, 1), bias=False)
        (1): _BatchNormXd(128, eps=1e-05, momentum=0.1, affine=True, track_running_stats=True)
        (2): ReLU(inplace=True)
      )
      (conv3): Sequential(
        (0): Conv2d(128, 256, kernel_size=(3, 3), stride=(2, 2), padding=(1, 1), bias=False)
        (1): _BatchNormXd(256, eps=1e-05, momentum=0.1, affine=True, track_running_stats=True)
        (2): ReLU(inplace=True)
      )
      (conv4): Sequential(
        (0): Conv2d(256, 256, kernel_size=(3, 3), stride=(2, 2), padding=(1, 1), bias=False)
        (1): _BatchNormXd(256, eps=1e-05, momentum=0.1, affine=True, track_running_stats=True)
        (2): ReLU(inplace=True)
      )
      (fc1): Conv2d(64, 768, kernel_size=(1, 1), stride=(1, 1))
      (fc2): Conv2d(128, 768, kernel_size=(1, 1), stride=(1, 1))
      (fc3): Conv2d(256, 768, kernel_size=(1, 1), stride=(1, 1))
      (fc4): Conv2d(256, 768, kernel_size=(1, 1), stride=(1, 1))
    )
    (interactions): Sequential(
      (0): InteractionBlock(
        (injector): Injector(
          (query_norm): LayerNorm((768,), eps=1e-06, elementwise_affine=True)
          (feat_norm): LayerNorm((768,), eps=1e-06, elementwise_affine=True)
          (attn): MSDeformAttn(
            (sampling_offsets): Linear(in_features=768, out_features=288, bias=True)
            (attention_weights): Linear(in_features=768, out_features=144, bias=True)
            (value_proj): Linear(in_features=768, out_features=384, bias=True)
            (output_proj): Linear(in_features=384, out_features=768, bias=True)
          )
        )
        (extractor): Extractor(
          (query_norm): LayerNorm((768,), eps=1e-06, elementwise_affine=True)
          (feat_norm): LayerNorm((768,), eps=1e-06, elementwise_affine=True)
          (attn): MSDeformAttn(
            (sampling_offsets): Linear(in_features=768, out_features=96, bias=True)
            (attention_weights): Linear(in_features=768, out_features=48, bias=True)
            (value_proj): Linear(in_features=768, out_features=384, bias=True)
            (output_proj): Linear(in_features=384, out_features=768, bias=True)
          )
          (ffn): ConvFFN(
            (fc1): Linear(in_features=768, out_features=192, bias=True)
            (dwconv): DWConv(
              (dwconv): Conv2d(192, 192, kernel_size=(3, 3), stride=(1, 1), padding=(1, 1), groups=192)
            )
            (act): GELU()
            (fc2): Linear(in_features=192, out_features=768, bias=True)
            (drop): Dropout(p=0.0, inplace=False)
          )
          (ffn_norm): LayerNorm((768,), eps=1e-06, elementwise_affine=True)
          (drop_path): DropPath()
        )
      )
      (1): InteractionBlock(
        (injector): Injector(
          (query_norm): LayerNorm((768,), eps=1e-06, elementwise_affine=True)
          (feat_norm): LayerNorm((768,), eps=1e-06, elementwise_affine=True)
          (attn): MSDeformAttn(
            (sampling_offsets): Linear(in_features=768, out_features=288, bias=True)
            (attention_weights): Linear(in_features=768, out_features=144, bias=True)
            (value_proj): Linear(in_features=768, out_features=384, bias=True)
            (output_proj): Linear(in_features=384, out_features=768, bias=True)
          )
        )
        (extractor): Extractor(
          (query_norm): LayerNorm((768,), eps=1e-06, elementwise_affine=True)
          (feat_norm): LayerNorm((768,), eps=1e-06, elementwise_affine=True)
          (attn): MSDeformAttn(
            (sampling_offsets): Linear(in_features=768, out_features=96, bias=True)
            (attention_weights): Linear(in_features=768, out_features=48, bias=True)
            (value_proj): Linear(in_features=768, out_features=384, bias=True)
            (output_proj): Linear(in_features=384, out_features=768, bias=True)
          )
          (ffn): ConvFFN(
            (fc1): Linear(in_features=768, out_features=192, bias=True)
            (dwconv): DWConv(
              (dwconv): Conv2d(192, 192, kernel_size=(3, 3), stride=(1, 1), padding=(1, 1), groups=192)
            )
            (act): GELU()
            (fc2): Linear(in_features=192, out_features=768, bias=True)
            (drop): Dropout(p=0.0, inplace=False)
          )
          (ffn_norm): LayerNorm((768,), eps=1e-06, elementwise_affine=True)
          (drop_path): DropPath()
        )
      )
      (2): InteractionBlock(
        (injector): Injector(
          (query_norm): LayerNorm((768,), eps=1e-06, elementwise_affine=True)
          (feat_norm): LayerNorm((768,), eps=1e-06, elementwise_affine=True)
          (attn): MSDeformAttn(
            (sampling_offsets): Linear(in_features=768, out_features=288, bias=True)
            (attention_weights): Linear(in_features=768, out_features=144, bias=True)
            (value_proj): Linear(in_features=768, out_features=384, bias=True)
            (output_proj): Linear(in_features=384, out_features=768, bias=True)
          )
        )
        (extractor): Extractor(
          (query_norm): LayerNorm((768,), eps=1e-06, elementwise_affine=True)
          (feat_norm): LayerNorm((768,), eps=1e-06, elementwise_affine=True)
          (attn): MSDeformAttn(
            (sampling_offsets): Linear(in_features=768, out_features=96, bias=True)
            (attention_weights): Linear(in_features=768, out_features=48, bias=True)
            (value_proj): Linear(in_features=768, out_features=384, bias=True)
            (output_proj): Linear(in_features=384, out_features=768, bias=True)
          )
          (ffn): ConvFFN(
            (fc1): Linear(in_features=768, out_features=192, bias=True)
            (dwconv): DWConv(
              (dwconv): Conv2d(192, 192, kernel_size=(3, 3), stride=(1, 1), padding=(1, 1), groups=192)
            )
            (act): GELU()
            (fc2): Linear(in_features=192, out_features=768, bias=True)
            (drop): Dropout(p=0.0, inplace=False)
          )
          (ffn_norm): LayerNorm((768,), eps=1e-06, elementwise_affine=True)
          (drop_path): DropPath()
        )
      )
      (3): InteractionBlock(
        (injector): Injector(
          (query_norm): LayerNorm((768,), eps=1e-06, elementwise_affine=True)
          (feat_norm): LayerNorm((768,), eps=1e-06, elementwise_affine=True)
          (attn): MSDeformAttn(
            (sampling_offsets): Linear(in_features=768, out_features=288, bias=True)
            (attention_weights): Linear(in_features=768, out_features=144, bias=True)
            (value_proj): Linear(in_features=768, out_features=384, bias=True)
            (output_proj): Linear(in_features=384, out_features=768, bias=True)
          )
        )
        (extractor): Extractor(
          (query_norm): LayerNorm((768,), eps=1e-06, elementwise_affine=True)
          (feat_norm): LayerNorm((768,), eps=1e-06, elementwise_affine=True)
          (attn): MSDeformAttn(
            (sampling_offsets): Linear(in_features=768, out_features=96, bias=True)
            (attention_weights): Linear(in_features=768, out_features=48, bias=True)
            (value_proj): Linear(in_features=768, out_features=384, bias=True)
            (output_proj): Linear(in_features=384, out_features=768, bias=True)
          )
          (ffn): ConvFFN(
            (fc1): Linear(in_features=768, out_features=192, bias=True)
            (dwconv): DWConv(
              (dwconv): Conv2d(192, 192, kernel_size=(3, 3), stride=(1, 1), padding=(1, 1), groups=192)
            )
            (act): GELU()
            (fc2): Linear(in_features=192, out_features=768, bias=True)
            (drop): Dropout(p=0.0, inplace=False)
          )
          (ffn_norm): LayerNorm((768,), eps=1e-06, elementwise_affine=True)
          (drop_path): DropPath()
        )
        (extra_extractors): Sequential(
          (0): Extractor(
            (query_norm): LayerNorm((768,), eps=1e-06, elementwise_affine=True)
            (feat_norm): LayerNorm((768,), eps=1e-06, elementwise_affine=True)
            (attn): MSDeformAttn(
              (sampling_offsets): Linear(in_features=768, out_features=96, bias=True)
              (attention_weights): Linear(in_features=768, out_features=48, bias=True)
              (value_proj): Linear(in_features=768, out_features=384, bias=True)
              (output_proj): Linear(in_features=384, out_features=768, bias=True)
            )
            (ffn): ConvFFN(
              (fc1): Linear(in_features=768, out_features=192, bias=True)
              (dwconv): DWConv(
                (dwconv): Conv2d(192, 192, kernel_size=(3, 3), stride=(1, 1), padding=(1, 1), groups=192)
              )
              (act): GELU()
              (fc2): Linear(in_features=192, out_features=768, bias=True)
              (drop): Dropout(p=0.0, inplace=False)
            )
            (ffn_norm): LayerNorm((768,), eps=1e-06, elementwise_affine=True)
            (drop_path): DropPath()
          )
          (1): Extractor(
            (query_norm): LayerNorm((768,), eps=1e-06, elementwise_affine=True)
            (feat_norm): LayerNorm((768,), eps=1e-06, elementwise_affine=True)
            (attn): MSDeformAttn(
              (sampling_offsets): Linear(in_features=768, out_features=96, bias=True)
              (attention_weights): Linear(in_features=768, out_features=48, bias=True)
              (value_proj): Linear(in_features=768, out_features=384, bias=True)
              (output_proj): Linear(in_features=384, out_features=768, bias=True)
            )
            (ffn): ConvFFN(
              (fc1): Linear(in_features=768, out_features=192, bias=True)
              (dwconv): DWConv(
                (dwconv): Conv2d(192, 192, kernel_size=(3, 3), stride=(1, 1), padding=(1, 1), groups=192)
              )
              (act): GELU()
              (fc2): Linear(in_features=192, out_features=768, bias=True)
              (drop): Dropout(p=0.0, inplace=False)
            )
            (ffn_norm): LayerNorm((768,), eps=1e-06, elementwise_affine=True)
            (drop_path): DropPath()
          )
        )
      )
    )
    (up): ConvTranspose2d(768, 768, kernel_size=(2, 2), stride=(2, 2))
    (norm1): _BatchNormXd(768, eps=1e-05, momentum=0.1, affine=True, track_running_stats=True)
    (norm2): _BatchNormXd(768, eps=1e-05, momentum=0.1, affine=True, track_running_stats=True)
    (norm3): _BatchNormXd(768, eps=1e-05, momentum=0.1, affine=True, track_running_stats=True)
    (norm4): _BatchNormXd(768, eps=1e-05, momentum=0.1, affine=True, track_running_stats=True)
  )
  (decode_head): UPerHead(
    input_transform=multiple_select, ignore_index=255, align_corners=False
    (loss_decode): CrossEntropyLoss(avg_non_ignore=False)
    (conv_seg): Conv2d(512, 16, kernel_size=(1, 1), stride=(1, 1))
    (dropout): Dropout2d(p=0.1, inplace=False)
    (psp_modules): PPM(
      (0): Sequential(
        (0): AdaptiveAvgPool2d(output_size=1)
        (1): ConvModule(
          (conv): Conv2d(768, 512, kernel_size=(1, 1), stride=(1, 1), bias=False)
          (bn): _BatchNormXd(512, eps=1e-05, momentum=0.1, affine=True, track_running_stats=True)
          (activate): ReLU(inplace=True)
        )
      )
      (1): Sequential(
        (0): AdaptiveAvgPool2d(output_size=2)
        (1): ConvModule(
          (conv): Conv2d(768, 512, kernel_size=(1, 1), stride=(1, 1), bias=False)
          (bn): _BatchNormXd(512, eps=1e-05, momentum=0.1, affine=True, track_running_stats=True)
          (activate): ReLU(inplace=True)
        )
      )
      (2): Sequential(
        (0): AdaptiveAvgPool2d(output_size=3)
        (1): ConvModule(
          (conv): Conv2d(768, 512, kernel_size=(1, 1), stride=(1, 1), bias=False)
          (bn): _BatchNormXd(512, eps=1e-05, momentum=0.1, affine=True, track_running_stats=True)
          (activate): ReLU(inplace=True)
        )
      )
      (3): Sequential(
        (0): AdaptiveAvgPool2d(output_size=6)
        (1): ConvModule(
          (conv): Conv2d(768, 512, kernel_size=(1, 1), stride=(1, 1), bias=False)
          (bn): _BatchNormXd(512, eps=1e-05, momentum=0.1, affine=True, track_running_stats=True)
          (activate): ReLU(inplace=True)
        )
      )
    )
    (bottleneck): ConvModule(
      (conv): Conv2d(2816, 512, kernel_size=(3, 3), stride=(1, 1), padding=(1, 1), bias=False)
      (bn): _BatchNormXd(512, eps=1e-05, momentum=0.1, affine=True, track_running_stats=True)
      (activate): ReLU(inplace=True)
    )
    (lateral_convs): ModuleList(
      (0): ConvModule(
        (conv): Conv2d(768, 512, kernel_size=(1, 1), stride=(1, 1), bias=False)
        (bn): _BatchNormXd(512, eps=1e-05, momentum=0.1, affine=True, track_running_stats=True)
        (activate): ReLU()
      )
      (1): ConvModule(
        (conv): Conv2d(768, 512, kernel_size=(1, 1), stride=(1, 1), bias=False)
        (bn): _BatchNormXd(512, eps=1e-05, momentum=0.1, affine=True, track_running_stats=True)
        (activate): ReLU()
      )
      (2): ConvModule(
        (conv): Conv2d(768, 512, kernel_size=(1, 1), stride=(1, 1), bias=False)
        (bn): _BatchNormXd(512, eps=1e-05, momentum=0.1, affine=True, track_running_stats=True)
        (activate): ReLU()
      )
    )
    (fpn_convs): ModuleList(
      (0): ConvModule(
        (conv): Conv2d(512, 512, kernel_size=(3, 3), stride=(1, 1), padding=(1, 1), bias=False)
        (bn): _BatchNormXd(512, eps=1e-05, momentum=0.1, affine=True, track_running_stats=True)
        (activate): ReLU()
      )
      (1): ConvModule(
        (conv): Conv2d(512, 512, kernel_size=(3, 3), stride=(1, 1), padding=(1, 1), bias=False)
        (bn): _BatchNormXd(512, eps=1e-05, momentum=0.1, affine=True, track_running_stats=True)
        (activate): ReLU()
      )
      (2): ConvModule(
        (conv): Conv2d(512, 512, kernel_size=(3, 3), stride=(1, 1), padding=(1, 1), bias=False)
        (bn): _BatchNormXd(512, eps=1e-05, momentum=0.1, affine=True, track_running_stats=True)
        (activate): ReLU()
      )
    )
    (fpn_bottleneck): ConvModule(
      (conv): Conv2d(2048, 512, kernel_size=(3, 3), stride=(1, 1), padding=(1, 1), bias=False)
      (bn): _BatchNormXd(512, eps=1e-05, momentum=0.1, affine=True, track_running_stats=True)
      (activate): ReLU(inplace=True)
    )
  )
  init_cfg={'type': 'Normal', 'std': 0.01, 'override': {'name': 'conv_seg'}}
  (auxiliary_head): FCNHead(
    input_transform=None, ignore_index=255, align_corners=False
    (loss_decode): CrossEntropyLoss(avg_non_ignore=False)
    (conv_seg): Conv2d(256, 16, kernel_size=(1, 1), stride=(1, 1))
    (dropout): Dropout2d(p=0.1, inplace=False)
    (convs): Sequential(
      (0): ConvModule(
        (conv): Conv2d(768, 256, kernel_size=(3, 3), stride=(1, 1), padding=(1, 1), bias=False)
        (bn): _BatchNormXd(256, eps=1e-05, momentum=0.1, affine=True, track_running_stats=True)
        (activate): ReLU(inplace=True)
      )
    )
  )
  init_cfg={'type': 'Normal', 'std': 0.01, 'override': {'name': 'conv_seg'}}
)
INFO:mmseg:EncoderDecoder(
  (backbone): ViTAdapter(
    (patch_embed): PatchEmbed(
      (proj): Conv2d(3, 768, kernel_size=(16, 16), stride=(16, 16))
      (norm): Identity()
    )
    (pos_drop): Dropout(p=0.0, inplace=False)
    (blocks): Sequential(
      (0): Block(
        (norm1): LayerNorm((768,), eps=1e-06, elementwise_affine=True)
        (attn): Attention(
          (qkv): Linear(in_features=768, out_features=2304, bias=True)
          (attn_drop): Dropout(p=0.0, inplace=False)
          (proj): Linear(in_features=768, out_features=768, bias=True)
          (proj_drop): Dropout(p=0.0, inplace=False)
        )
        (drop_path): Identity()
        (norm2): LayerNorm((768,), eps=1e-06, elementwise_affine=True)
        (mlp): Mlp(
          (fc1): Linear(in_features=768, out_features=3072, bias=True)
          (act): GELU()
          (fc2): Linear(in_features=3072, out_features=768, bias=True)
          (drop): Dropout(p=0.0, inplace=False)
        )
      )
      (1): Block(
        (norm1): LayerNorm((768,), eps=1e-06, elementwise_affine=True)
        (attn): Attention(
          (qkv): Linear(in_features=768, out_features=2304, bias=True)
          (attn_drop): Dropout(p=0.0, inplace=False)
          (proj): Linear(in_features=768, out_features=768, bias=True)
          (proj_drop): Dropout(p=0.0, inplace=False)
        )
        (drop_path): DropPath()
        (norm2): LayerNorm((768,), eps=1e-06, elementwise_affine=True)
        (mlp): Mlp(
          (fc1): Linear(in_features=768, out_features=3072, bias=True)
          (act): GELU()
          (fc2): Linear(in_features=3072, out_features=768, bias=True)
          (drop): Dropout(p=0.0, inplace=False)
        )
      )
      (2): Block(
        (norm1): LayerNorm((768,), eps=1e-06, elementwise_affine=True)
        (attn): Attention(
          (qkv): Linear(in_features=768, out_features=2304, bias=True)
          (attn_drop): Dropout(p=0.0, inplace=False)
          (proj): Linear(in_features=768, out_features=768, bias=True)
          (proj_drop): Dropout(p=0.0, inplace=False)
        )
        (drop_path): DropPath()
        (norm2): LayerNorm((768,), eps=1e-06, elementwise_affine=True)
        (mlp): Mlp(
          (fc1): Linear(in_features=768, out_features=3072, bias=True)
          (act): GELU()
          (fc2): Linear(in_features=3072, out_features=768, bias=True)
          (drop): Dropout(p=0.0, inplace=False)
        )
      )
      (3): Block(
        (norm1): LayerNorm((768,), eps=1e-06, elementwise_affine=True)
        (attn): Attention(
          (qkv): Linear(in_features=768, out_features=2304, bias=True)
          (attn_drop): Dropout(p=0.0, inplace=False)
          (proj): Linear(in_features=768, out_features=768, bias=True)
          (proj_drop): Dropout(p=0.0, inplace=False)
        )
        (drop_path): DropPath()
        (norm2): LayerNorm((768,), eps=1e-06, elementwise_affine=True)
        (mlp): Mlp(
          (fc1): Linear(in_features=768, out_features=3072, bias=True)
          (act): GELU()
          (fc2): Linear(in_features=3072, out_features=768, bias=True)
          (drop): Dropout(p=0.0, inplace=False)
        )
      )
      (4): Block(
        (norm1): LayerNorm((768,), eps=1e-06, elementwise_affine=True)
        (attn): Attention(
          (qkv): Linear(in_features=768, out_features=2304, bias=True)
          (attn_drop): Dropout(p=0.0, inplace=False)
          (proj): Linear(in_features=768, out_features=768, bias=True)
          (proj_drop): Dropout(p=0.0, inplace=False)
        )
        (drop_path): DropPath()
        (norm2): LayerNorm((768,), eps=1e-06, elementwise_affine=True)
        (mlp): Mlp(
          (fc1): Linear(in_features=768, out_features=3072, bias=True)
          (act): GELU()
          (fc2): Linear(in_features=3072, out_features=768, bias=True)
          (drop): Dropout(p=0.0, inplace=False)
        )
      )
      (5): Block(
        (norm1): LayerNorm((768,), eps=1e-06, elementwise_affine=True)
        (attn): Attention(
          (qkv): Linear(in_features=768, out_features=2304, bias=True)
          (attn_drop): Dropout(p=0.0, inplace=False)
          (proj): Linear(in_features=768, out_features=768, bias=True)
          (proj_drop): Dropout(p=0.0, inplace=False)
        )
        (drop_path): DropPath()
        (norm2): LayerNorm((768,), eps=1e-06, elementwise_affine=True)
        (mlp): Mlp(
          (fc1): Linear(in_features=768, out_features=3072, bias=True)
          (act): GELU()
          (fc2): Linear(in_features=3072, out_features=768, bias=True)
          (drop): Dropout(p=0.0, inplace=False)
        )
      )
      (6): Block(
        (norm1): LayerNorm((768,), eps=1e-06, elementwise_affine=True)
        (attn): Attention(
          (qkv): Linear(in_features=768, out_features=2304, bias=True)
          (attn_drop): Dropout(p=0.0, inplace=False)
          (proj): Linear(in_features=768, out_features=768, bias=True)
          (proj_drop): Dropout(p=0.0, inplace=False)
        )
        (drop_path): DropPath()
        (norm2): LayerNorm((768,), eps=1e-06, elementwise_affine=True)
        (mlp): Mlp(
          (fc1): Linear(in_features=768, out_features=3072, bias=True)
          (act): GELU()
          (fc2): Linear(in_features=3072, out_features=768, bias=True)
          (drop): Dropout(p=0.0, inplace=False)
        )
      )
      (7): Block(
        (norm1): LayerNorm((768,), eps=1e-06, elementwise_affine=True)
        (attn): Attention(
          (qkv): Linear(in_features=768, out_features=2304, bias=True)
          (attn_drop): Dropout(p=0.0, inplace=False)
          (proj): Linear(in_features=768, out_features=768, bias=True)
          (proj_drop): Dropout(p=0.0, inplace=False)
        )
        (drop_path): DropPath()
        (norm2): LayerNorm((768,), eps=1e-06, elementwise_affine=True)
        (mlp): Mlp(
          (fc1): Linear(in_features=768, out_features=3072, bias=True)
          (act): GELU()
          (fc2): Linear(in_features=3072, out_features=768, bias=True)
          (drop): Dropout(p=0.0, inplace=False)
        )
      )
      (8): Block(
        (norm1): LayerNorm((768,), eps=1e-06, elementwise_affine=True)
        (attn): Attention(
          (qkv): Linear(in_features=768, out_features=2304, bias=True)
          (attn_drop): Dropout(p=0.0, inplace=False)
          (proj): Linear(in_features=768, out_features=768, bias=True)
          (proj_drop): Dropout(p=0.0, inplace=False)
        )
        (drop_path): DropPath()
        (norm2): LayerNorm((768,), eps=1e-06, elementwise_affine=True)
        (mlp): Mlp(
          (fc1): Linear(in_features=768, out_features=3072, bias=True)
          (act): GELU()
          (fc2): Linear(in_features=3072, out_features=768, bias=True)
          (drop): Dropout(p=0.0, inplace=False)
        )
      )
      (9): Block(
        (norm1): LayerNorm((768,), eps=1e-06, elementwise_affine=True)
        (attn): Attention(
          (qkv): Linear(in_features=768, out_features=2304, bias=True)
          (attn_drop): Dropout(p=0.0, inplace=False)
          (proj): Linear(in_features=768, out_features=768, bias=True)
          (proj_drop): Dropout(p=0.0, inplace=False)
        )
        (drop_path): DropPath()
        (norm2): LayerNorm((768,), eps=1e-06, elementwise_affine=True)
        (mlp): Mlp(
          (fc1): Linear(in_features=768, out_features=3072, bias=True)
          (act): GELU()
          (fc2): Linear(in_features=3072, out_features=768, bias=True)
          (drop): Dropout(p=0.0, inplace=False)
        )
      )
      (10): Block(
        (norm1): LayerNorm((768,), eps=1e-06, elementwise_affine=True)
        (attn): Attention(
          (qkv): Linear(in_features=768, out_features=2304, bias=True)
          (attn_drop): Dropout(p=0.0, inplace=False)
          (proj): Linear(in_features=768, out_features=768, bias=True)
          (proj_drop): Dropout(p=0.0, inplace=False)
        )
        (drop_path): DropPath()
        (norm2): LayerNorm((768,), eps=1e-06, elementwise_affine=True)
        (mlp): Mlp(
          (fc1): Linear(in_features=768, out_features=3072, bias=True)
          (act): GELU()
          (fc2): Linear(in_features=3072, out_features=768, bias=True)
          (drop): Dropout(p=0.0, inplace=False)
        )
      )
      (11): Block(
        (norm1): LayerNorm((768,), eps=1e-06, elementwise_affine=True)
        (attn): Attention(
          (qkv): Linear(in_features=768, out_features=2304, bias=True)
          (attn_drop): Dropout(p=0.0, inplace=False)
          (proj): Linear(in_features=768, out_features=768, bias=True)
          (proj_drop): Dropout(p=0.0, inplace=False)
        )
        (drop_path): DropPath()
        (norm2): LayerNorm((768,), eps=1e-06, elementwise_affine=True)
        (mlp): Mlp(
          (fc1): Linear(in_features=768, out_features=3072, bias=True)
          (act): GELU()
          (fc2): Linear(in_features=3072, out_features=768, bias=True)
          (drop): Dropout(p=0.0, inplace=False)
        )
      )
    )
    (spm): SpatialPriorModule(
      (stem): Sequential(
        (0): Conv2d(3, 64, kernel_size=(3, 3), stride=(2, 2), padding=(1, 1), bias=False)
        (1): _BatchNormXd(64, eps=1e-05, momentum=0.1, affine=True, track_running_stats=True)
        (2): ReLU(inplace=True)
        (3): Conv2d(64, 64, kernel_size=(3, 3), stride=(1, 1), padding=(1, 1), bias=False)
        (4): _BatchNormXd(64, eps=1e-05, momentum=0.1, affine=True, track_running_stats=True)
        (5): ReLU(inplace=True)
        (6): Conv2d(64, 64, kernel_size=(3, 3), stride=(1, 1), padding=(1, 1), bias=False)
        (7): _BatchNormXd(64, eps=1e-05, momentum=0.1, affine=True, track_running_stats=True)
        (8): ReLU(inplace=True)
        (9): MaxPool2d(kernel_size=3, stride=2, padding=1, dilation=1, ceil_mode=False)
      )
      (conv2): Sequential(
        (0): Conv2d(64, 128, kernel_size=(3, 3), stride=(2, 2), padding=(1, 1), bias=False)
        (1): _BatchNormXd(128, eps=1e-05, momentum=0.1, affine=True, track_running_stats=True)
        (2): ReLU(inplace=True)
      )
      (conv3): Sequential(
        (0): Conv2d(128, 256, kernel_size=(3, 3), stride=(2, 2), padding=(1, 1), bias=False)
        (1): _BatchNormXd(256, eps=1e-05, momentum=0.1, affine=True, track_running_stats=True)
        (2): ReLU(inplace=True)
      )
      (conv4): Sequential(
        (0): Conv2d(256, 256, kernel_size=(3, 3), stride=(2, 2), padding=(1, 1), bias=False)
        (1): _BatchNormXd(256, eps=1e-05, momentum=0.1, affine=True, track_running_stats=True)
        (2): ReLU(inplace=True)
      )
      (fc1): Conv2d(64, 768, kernel_size=(1, 1), stride=(1, 1))
      (fc2): Conv2d(128, 768, kernel_size=(1, 1), stride=(1, 1))
      (fc3): Conv2d(256, 768, kernel_size=(1, 1), stride=(1, 1))
      (fc4): Conv2d(256, 768, kernel_size=(1, 1), stride=(1, 1))
    )
    (interactions): Sequential(
      (0): InteractionBlock(
        (injector): Injector(
          (query_norm): LayerNorm((768,), eps=1e-06, elementwise_affine=True)
          (feat_norm): LayerNorm((768,), eps=1e-06, elementwise_affine=True)
          (attn): MSDeformAttn(
            (sampling_offsets): Linear(in_features=768, out_features=288, bias=True)
            (attention_weights): Linear(in_features=768, out_features=144, bias=True)
            (value_proj): Linear(in_features=768, out_features=384, bias=True)
            (output_proj): Linear(in_features=384, out_features=768, bias=True)
          )
        )
        (extractor): Extractor(
          (query_norm): LayerNorm((768,), eps=1e-06, elementwise_affine=True)
          (feat_norm): LayerNorm((768,), eps=1e-06, elementwise_affine=True)
          (attn): MSDeformAttn(
            (sampling_offsets): Linear(in_features=768, out_features=96, bias=True)
            (attention_weights): Linear(in_features=768, out_features=48, bias=True)
            (value_proj): Linear(in_features=768, out_features=384, bias=True)
            (output_proj): Linear(in_features=384, out_features=768, bias=True)
          )
          (ffn): ConvFFN(
            (fc1): Linear(in_features=768, out_features=192, bias=True)
            (dwconv): DWConv(
              (dwconv): Conv2d(192, 192, kernel_size=(3, 3), stride=(1, 1), padding=(1, 1), groups=192)
            )
            (act): GELU()
            (fc2): Linear(in_features=192, out_features=768, bias=True)
            (drop): Dropout(p=0.0, inplace=False)
          )
          (ffn_norm): LayerNorm((768,), eps=1e-06, elementwise_affine=True)
          (drop_path): DropPath()
        )
      )
      (1): InteractionBlock(
        (injector): Injector(
          (query_norm): LayerNorm((768,), eps=1e-06, elementwise_affine=True)
          (feat_norm): LayerNorm((768,), eps=1e-06, elementwise_affine=True)
          (attn): MSDeformAttn(
            (sampling_offsets): Linear(in_features=768, out_features=288, bias=True)
            (attention_weights): Linear(in_features=768, out_features=144, bias=True)
            (value_proj): Linear(in_features=768, out_features=384, bias=True)
            (output_proj): Linear(in_features=384, out_features=768, bias=True)
          )
        )
        (extractor): Extractor(
          (query_norm): LayerNorm((768,), eps=1e-06, elementwise_affine=True)
          (feat_norm): LayerNorm((768,), eps=1e-06, elementwise_affine=True)
          (attn): MSDeformAttn(
            (sampling_offsets): Linear(in_features=768, out_features=96, bias=True)
            (attention_weights): Linear(in_features=768, out_features=48, bias=True)
            (value_proj): Linear(in_features=768, out_features=384, bias=True)
            (output_proj): Linear(in_features=384, out_features=768, bias=True)
          )
          (ffn): ConvFFN(
            (fc1): Linear(in_features=768, out_features=192, bias=True)
            (dwconv): DWConv(
              (dwconv): Conv2d(192, 192, kernel_size=(3, 3), stride=(1, 1), padding=(1, 1), groups=192)
            )
            (act): GELU()
            (fc2): Linear(in_features=192, out_features=768, bias=True)
            (drop): Dropout(p=0.0, inplace=False)
          )
          (ffn_norm): LayerNorm((768,), eps=1e-06, elementwise_affine=True)
          (drop_path): DropPath()
        )
      )
      (2): InteractionBlock(
        (injector): Injector(
          (query_norm): LayerNorm((768,), eps=1e-06, elementwise_affine=True)
          (feat_norm): LayerNorm((768,), eps=1e-06, elementwise_affine=True)
          (attn): MSDeformAttn(
            (sampling_offsets): Linear(in_features=768, out_features=288, bias=True)
            (attention_weights): Linear(in_features=768, out_features=144, bias=True)
            (value_proj): Linear(in_features=768, out_features=384, bias=True)
            (output_proj): Linear(in_features=384, out_features=768, bias=True)
          )
        )
        (extractor): Extractor(
          (query_norm): LayerNorm((768,), eps=1e-06, elementwise_affine=True)
          (feat_norm): LayerNorm((768,), eps=1e-06, elementwise_affine=True)
          (attn): MSDeformAttn(
            (sampling_offsets): Linear(in_features=768, out_features=96, bias=True)
            (attention_weights): Linear(in_features=768, out_features=48, bias=True)
            (value_proj): Linear(in_features=768, out_features=384, bias=True)
            (output_proj): Linear(in_features=384, out_features=768, bias=True)
          )
          (ffn): ConvFFN(
            (fc1): Linear(in_features=768, out_features=192, bias=True)
            (dwconv): DWConv(
              (dwconv): Conv2d(192, 192, kernel_size=(3, 3), stride=(1, 1), padding=(1, 1), groups=192)
            )
            (act): GELU()
            (fc2): Linear(in_features=192, out_features=768, bias=True)
            (drop): Dropout(p=0.0, inplace=False)
          )
          (ffn_norm): LayerNorm((768,), eps=1e-06, elementwise_affine=True)
          (drop_path): DropPath()
        )
      )
      (3): InteractionBlock(
        (injector): Injector(
          (query_norm): LayerNorm((768,), eps=1e-06, elementwise_affine=True)
          (feat_norm): LayerNorm((768,), eps=1e-06, elementwise_affine=True)
          (attn): MSDeformAttn(
            (sampling_offsets): Linear(in_features=768, out_features=288, bias=True)
            (attention_weights): Linear(in_features=768, out_features=144, bias=True)
            (value_proj): Linear(in_features=768, out_features=384, bias=True)
            (output_proj): Linear(in_features=384, out_features=768, bias=True)
          )
        )
        (extractor): Extractor(
          (query_norm): LayerNorm((768,), eps=1e-06, elementwise_affine=True)
          (feat_norm): LayerNorm((768,), eps=1e-06, elementwise_affine=True)
          (attn): MSDeformAttn(
            (sampling_offsets): Linear(in_features=768, out_features=96, bias=True)
            (attention_weights): Linear(in_features=768, out_features=48, bias=True)
            (value_proj): Linear(in_features=768, out_features=384, bias=True)
            (output_proj): Linear(in_features=384, out_features=768, bias=True)
          )
          (ffn): ConvFFN(
            (fc1): Linear(in_features=768, out_features=192, bias=True)
            (dwconv): DWConv(
              (dwconv): Conv2d(192, 192, kernel_size=(3, 3), stride=(1, 1), padding=(1, 1), groups=192)
            )
            (act): GELU()
            (fc2): Linear(in_features=192, out_features=768, bias=True)
            (drop): Dropout(p=0.0, inplace=False)
          )
          (ffn_norm): LayerNorm((768,), eps=1e-06, elementwise_affine=True)
          (drop_path): DropPath()
        )
        (extra_extractors): Sequential(
          (0): Extractor(
            (query_norm): LayerNorm((768,), eps=1e-06, elementwise_affine=True)
            (feat_norm): LayerNorm((768,), eps=1e-06, elementwise_affine=True)
            (attn): MSDeformAttn(
              (sampling_offsets): Linear(in_features=768, out_features=96, bias=True)
              (attention_weights): Linear(in_features=768, out_features=48, bias=True)
              (value_proj): Linear(in_features=768, out_features=384, bias=True)
              (output_proj): Linear(in_features=384, out_features=768, bias=True)
            )
            (ffn): ConvFFN(
              (fc1): Linear(in_features=768, out_features=192, bias=True)
              (dwconv): DWConv(
                (dwconv): Conv2d(192, 192, kernel_size=(3, 3), stride=(1, 1), padding=(1, 1), groups=192)
              )
              (act): GELU()
              (fc2): Linear(in_features=192, out_features=768, bias=True)
              (drop): Dropout(p=0.0, inplace=False)
            )
            (ffn_norm): LayerNorm((768,), eps=1e-06, elementwise_affine=True)
            (drop_path): DropPath()
          )
          (1): Extractor(
            (query_norm): LayerNorm((768,), eps=1e-06, elementwise_affine=True)
            (feat_norm): LayerNorm((768,), eps=1e-06, elementwise_affine=True)
            (attn): MSDeformAttn(
              (sampling_offsets): Linear(in_features=768, out_features=96, bias=True)
              (attention_weights): Linear(in_features=768, out_features=48, bias=True)
              (value_proj): Linear(in_features=768, out_features=384, bias=True)
              (output_proj): Linear(in_features=384, out_features=768, bias=True)
            )
            (ffn): ConvFFN(
              (fc1): Linear(in_features=768, out_features=192, bias=True)
              (dwconv): DWConv(
                (dwconv): Conv2d(192, 192, kernel_size=(3, 3), stride=(1, 1), padding=(1, 1), groups=192)
              )
              (act): GELU()
              (fc2): Linear(in_features=192, out_features=768, bias=True)
              (drop): Dropout(p=0.0, inplace=False)
            )
            (ffn_norm): LayerNorm((768,), eps=1e-06, elementwise_affine=True)
            (drop_path): DropPath()
          )
        )
      )
    )
    (up): ConvTranspose2d(768, 768, kernel_size=(2, 2), stride=(2, 2))
    (norm1): _BatchNormXd(768, eps=1e-05, momentum=0.1, affine=True, track_running_stats=True)
    (norm2): _BatchNormXd(768, eps=1e-05, momentum=0.1, affine=True, track_running_stats=True)
    (norm3): _BatchNormXd(768, eps=1e-05, momentum=0.1, affine=True, track_running_stats=True)
    (norm4): _BatchNormXd(768, eps=1e-05, momentum=0.1, affine=True, track_running_stats=True)
  )
  (decode_head): UPerHead(
    input_transform=multiple_select, ignore_index=255, align_corners=False
    (loss_decode): CrossEntropyLoss(avg_non_ignore=False)
    (conv_seg): Conv2d(512, 16, kernel_size=(1, 1), stride=(1, 1))
    (dropout): Dropout2d(p=0.1, inplace=False)
    (psp_modules): PPM(
      (0): Sequential(
        (0): AdaptiveAvgPool2d(output_size=1)
        (1): ConvModule(
          (conv): Conv2d(768, 512, kernel_size=(1, 1), stride=(1, 1), bias=False)
          (bn): _BatchNormXd(512, eps=1e-05, momentum=0.1, affine=True, track_running_stats=True)
          (activate): ReLU(inplace=True)
        )
      )
      (1): Sequential(
        (0): AdaptiveAvgPool2d(output_size=2)
        (1): ConvModule(
          (conv): Conv2d(768, 512, kernel_size=(1, 1), stride=(1, 1), bias=False)
          (bn): _BatchNormXd(512, eps=1e-05, momentum=0.1, affine=True, track_running_stats=True)
          (activate): ReLU(inplace=True)
        )
      )
      (2): Sequential(
        (0): AdaptiveAvgPool2d(output_size=3)
        (1): ConvModule(
          (conv): Conv2d(768, 512, kernel_size=(1, 1), stride=(1, 1), bias=False)
          (bn): _BatchNormXd(512, eps=1e-05, momentum=0.1, affine=True, track_running_stats=True)
          (activate): ReLU(inplace=True)
        )
      )
      (3): Sequential(
        (0): AdaptiveAvgPool2d(output_size=6)
        (1): ConvModule(
          (conv): Conv2d(768, 512, kernel_size=(1, 1), stride=(1, 1), bias=False)
          (bn): _BatchNormXd(512, eps=1e-05, momentum=0.1, affine=True, track_running_stats=True)
          (activate): ReLU(inplace=True)
        )
      )
    )
    (bottleneck): ConvModule(
      (conv): Conv2d(2816, 512, kernel_size=(3, 3), stride=(1, 1), padding=(1, 1), bias=False)
      (bn): _BatchNormXd(512, eps=1e-05, momentum=0.1, affine=True, track_running_stats=True)
      (activate): ReLU(inplace=True)
    )
    (lateral_convs): ModuleList(
      (0): ConvModule(
        (conv): Conv2d(768, 512, kernel_size=(1, 1), stride=(1, 1), bias=False)
        (bn): _BatchNormXd(512, eps=1e-05, momentum=0.1, affine=True, track_running_stats=True)
        (activate): ReLU()
      )
      (1): ConvModule(
        (conv): Conv2d(768, 512, kernel_size=(1, 1), stride=(1, 1), bias=False)
        (bn): _BatchNormXd(512, eps=1e-05, momentum=0.1, affine=True, track_running_stats=True)
        (activate): ReLU()
      )
      (2): ConvModule(
        (conv): Conv2d(768, 512, kernel_size=(1, 1), stride=(1, 1), bias=False)
        (bn): _BatchNormXd(512, eps=1e-05, momentum=0.1, affine=True, track_running_stats=True)
        (activate): ReLU()
      )
    )
    (fpn_convs): ModuleList(
      (0): ConvModule(
        (conv): Conv2d(512, 512, kernel_size=(3, 3), stride=(1, 1), padding=(1, 1), bias=False)
        (bn): _BatchNormXd(512, eps=1e-05, momentum=0.1, affine=True, track_running_stats=True)
        (activate): ReLU()
      )
      (1): ConvModule(
        (conv): Conv2d(512, 512, kernel_size=(3, 3), stride=(1, 1), padding=(1, 1), bias=False)
        (bn): _BatchNormXd(512, eps=1e-05, momentum=0.1, affine=True, track_running_stats=True)
        (activate): ReLU()
      )
      (2): ConvModule(
        (conv): Conv2d(512, 512, kernel_size=(3, 3), stride=(1, 1), padding=(1, 1), bias=False)
        (bn): _BatchNormXd(512, eps=1e-05, momentum=0.1, affine=True, track_running_stats=True)
        (activate): ReLU()
      )
    )
    (fpn_bottleneck): ConvModule(
      (conv): Conv2d(2048, 512, kernel_size=(3, 3), stride=(1, 1), padding=(1, 1), bias=False)
      (bn): _BatchNormXd(512, eps=1e-05, momentum=0.1, affine=True, track_running_stats=True)
      (activate): ReLU(inplace=True)
    )
  )
  init_cfg={'type': 'Normal', 'std': 0.01, 'override': {'name': 'conv_seg'}}
  (auxiliary_head): FCNHead(
    input_transform=None, ignore_index=255, align_corners=False
    (loss_decode): CrossEntropyLoss(avg_non_ignore=False)
    (conv_seg): Conv2d(256, 16, kernel_size=(1, 1), stride=(1, 1))
    (dropout): Dropout2d(p=0.1, inplace=False)
    (convs): Sequential(
      (0): ConvModule(
        (conv): Conv2d(768, 256, kernel_size=(3, 3), stride=(1, 1), padding=(1, 1), bias=False)
        (bn): _BatchNormXd(256, eps=1e-05, momentum=0.1, affine=True, track_running_stats=True)
        (activate): ReLU(inplace=True)
      )
    )
  )
  init_cfg={'type': 'Normal', 'std': 0.01, 'override': {'name': 'conv_seg'}}
)
2023-02-26 17:55:23,374 - mmseg - INFO - Loaded 1429 images
INFO:mmseg:Loaded 1429 images
2023-02-26 17:55:28,379 - mmseg - INFO - Loaded 357 images
…
